model_num, num_kernels, kernel_depth,num_hidden,hidden_size,minBC,E95,E90,E80,E70,P,T,cost,num_kernels,kernel_size,kernel_depth,num_hidden,hidden_size,model_str,model_str
0, 8,5,2,1,128,[… None,None,13,5,6556,0.0002503156661987305,1.641069507598877,8,5,2,1,128,Sequential(  (conv0): Conv2d(1, 8, kernel_size=(5, 5), stride=(1, 1))  (ReLU0): ReLU()  (maxp0): MaxPool2d(kernel_size=2, stride=2, padding=0, dilation=1, ceil_mode=False)  (conv1): Conv2d(8, 8, kernel_size=(5, 5), stride=(1, 1))  (ReLU1): ReLU()  (maxp1): MaxPool2d(kernel_size=2, stride=2, padding=0, dilation=1, ceil_mode=False)  (flatten): Flatten(start_dim=1, end_dim=-1)  (h0): Linear(in_features=32, out_features=128, bias=True)  (hReLU0): ReLU()  (output): Linear(in_features=128, out_features=4, bias=True))
1, 4,5,1,1,256,[… None,None,6,2,66924,0.00017966270446777342,12.023746833801269,4,5,1,1,256,Sequential(  (conv0): Conv2d(1, 4, kernel_size=(5, 5), stride=(1, 1))  (ReLU0): ReLU()  (maxp0): MaxPool2d(kernel_size=2, stride=2, padding=0, dilation=1, ceil_mode=False)  (flatten): Flatten(start_dim=1, end_dim=-1)  (h0): Linear(in_features=256, out_features=256, bias=True)  (hReLU0): ReLU()  (output): Linear(in_features=256, out_features=4, bias=True))
2, 12,5,1,1,128,[… None,None,4,2,99260,0.0001808500289916992,17.951173877716062,12,5,1,1,128,Sequential(  (conv0): Conv2d(1, 12, kernel_size=(5, 5), stride=(1, 1))  (ReLU0): ReLU()  (maxp0): MaxPool2d(kernel_size=2, stride=2, padding=0, dilation=1, ceil_mode=False)  (flatten): Flatten(start_dim=1, end_dim=-1)  (h0): Linear(in_features=768, out_features=128, bias=True)  (hReLU0): ReLU()  (output): Linear(in_features=128, out_features=4, bias=True))
3, 12,3,2,2,256,[… None,9,5,2,96152,0.00029419660568237306,28.287592029571535,12,3,2,2,256,Sequential(  (conv0): Conv2d(1, 12, kernel_size=(3, 3), stride=(1, 1))  (ReLU0): ReLU()  (maxp0): MaxPool2d(kernel_size=2, stride=2, padding=0, dilation=1, ceil_mode=False)  (conv1): Conv2d(12, 12, kernel_size=(3, 3), stride=(1, 1))  (ReLU1): ReLU()  (maxp1): MaxPool2d(kernel_size=2, stride=2, padding=0, dilation=1, ceil_mode=False)  (flatten): Flatten(start_dim=1, end_dim=-1)  (h0): Linear(in_features=108, out_features=256, bias=True)  (hReLU0): ReLU()  (h1): Linear(in_features=256, out_features=256, bias=True)  (hReLU1): ReLU()  (output): Linear(in_features=256, out_features=4, bias=True))
4, 8,3,1,1,512,[… None,None,4,2,334420,0.00017873764038085936,59.77344169616699,8,3,1,1,512,Sequential(  (conv0): Conv2d(1, 8, kernel_size=(3, 3), stride=(1, 1))  (ReLU0): ReLU()  (maxp0): MaxPool2d(kernel_size=2, stride=2, padding=0, dilation=1, ceil_mode=False)  (flatten): Flatten(start_dim=1, end_dim=-1)  (h0): Linear(in_features=648, out_features=512, bias=True)  (hReLU0): ReLU()  (output): Linear(in_features=512, out_features=4, bias=True))
5, 8,3,2,0,512,[… None,None,None,15,956,0.0002028656005859375,0.19393951416015626,8,3,2,0,512,Sequential(  (conv0): Conv2d(1, 8, kernel_size=(3, 3), stride=(1, 1))  (ReLU0): ReLU()  (maxp0): MaxPool2d(kernel_size=2, stride=2, padding=0, dilation=1, ceil_mode=False)  (conv1): Conv2d(8, 8, kernel_size=(3, 3), stride=(1, 1))  (ReLU1): ReLU()  (maxp1): MaxPool2d(kernel_size=2, stride=2, padding=0, dilation=1, ceil_mode=False)  (flatten): Flatten(start_dim=1, end_dim=-1)  (output): Linear(in_features=72, out_features=4, bias=True))
6, 10,3,2,2,128,[… None,22,6,3,29686,0.00029609918594360353,8.790000433921815,10,3,2,2,128,Sequential(  (conv0): Conv2d(1, 10, kernel_size=(3, 3), stride=(1, 1))  (ReLU0): ReLU()  (maxp0): MaxPool2d(kernel_size=2, stride=2, padding=0, dilation=1, ceil_mode=False)  (conv1): Conv2d(10, 10, kernel_size=(3, 3), stride=(1, 1))  (ReLU1): ReLU()  (maxp1): MaxPool2d(kernel_size=2, stride=2, padding=0, dilation=1, ceil_mode=False)  (flatten): Flatten(start_dim=1, end_dim=-1)  (h0): Linear(in_features=90, out_features=128, bias=True)  (hReLU0): ReLU()  (h1): Linear(in_features=128, out_features=128, bias=True)  (hReLU1): ReLU()  (output): Linear(in_features=128, out_features=4, bias=True))
7, 4,3,1,2,64,[… None,None,24,6,25260,0.00022643327713012696,5.719704580307007,4,3,1,2,64,Sequential(  (conv0): Conv2d(1, 4, kernel_size=(3, 3), stride=(1, 1))  (ReLU0): ReLU()  (maxp0): MaxPool2d(kernel_size=2, stride=2, padding=0, dilation=1, ceil_mode=False)  (flatten): Flatten(start_dim=1, end_dim=-1)  (h0): Linear(in_features=324, out_features=64, bias=True)  (hReLU0): ReLU()  (h1): Linear(in_features=64, out_features=64, bias=True)  (hReLU1): ReLU()  (output): Linear(in_features=64, out_features=4, bias=True))
8, 12,5,1,1,512,[… None,None,7,1,396092,0.0001820707321166992,72.11676042556762,12,5,1,1,512,Sequential(  (conv0): Conv2d(1, 12, kernel_size=(5, 5), stride=(1, 1))  (ReLU0): ReLU()  (maxp0): MaxPool2d(kernel_size=2, stride=2, padding=0, dilation=1, ceil_mode=False)  (flatten): Flatten(start_dim=1, end_dim=-1)  (h0): Linear(in_features=768, out_features=512, bias=True)  (hReLU0): ReLU()  (output): Linear(in_features=512, out_features=4, bias=True))
9, 4,5,2,0,128,[… None,None,None,16,576,0.00020212888717651366,0.11642623901367187,4,5,2,0,128,Sequential(  (conv0): Conv2d(1, 4, kernel_size=(5, 5), stride=(1, 1))  (ReLU0): ReLU()  (maxp0): MaxPool2d(kernel_size=2, stride=2, padding=0, dilation=1, ceil_mode=False)  (conv1): Conv2d(4, 4, kernel_size=(5, 5), stride=(1, 1))  (ReLU1): ReLU()  (maxp1): MaxPool2d(kernel_size=2, stride=2, padding=0, dilation=1, ceil_mode=False)  (flatten): Flatten(start_dim=1, end_dim=-1)  (output): Linear(in_features=16, out_features=4, bias=True))
10, 6,3,2,1,128,[… None,22,9,3,7946,0.0002497196197509766,1.9842720985412599,6,3,2,1,128,Sequential(  (conv0): Conv2d(1, 6, kernel_size=(3, 3), stride=(1, 1))  (ReLU0): ReLU()  (maxp0): MaxPool2d(kernel_size=2, stride=2, padding=0, dilation=1, ceil_mode=False)  (conv1): Conv2d(6, 6, kernel_size=(3, 3), stride=(1, 1))  (ReLU1): ReLU()  (maxp1): MaxPool2d(kernel_size=2, stride=2, padding=0, dilation=1, ceil_mode=False)  (flatten): Flatten(start_dim=1, end_dim=-1)  (h0): Linear(in_features=54, out_features=128, bias=True)  (hReLU0): ReLU()  (output): Linear(in_features=128, out_features=4, bias=True))
11, 10,3,1,1,64,[… None,None,10,5,52264,0.00018073320388793944,9.445840167999267,10,3,1,1,64,Sequential(  (conv0): Conv2d(1, 10, kernel_size=(3, 3), stride=(1, 1))  (ReLU0): ReLU()  (maxp0): MaxPool2d(kernel_size=2, stride=2, padding=0, dilation=1, ceil_mode=False)  (flatten): Flatten(start_dim=1, end_dim=-1)  (h0): Linear(in_features=810, out_features=64, bias=True)  (hReLU0): ReLU()  (output): Linear(in_features=64, out_features=4, bias=True))
12, 8,5,1,0,512,[… None,None,12,8,2260,0.000135195255279541,0.3055412769317627,8,5,1,0,512,Sequential(  (conv0): Conv2d(1, 8, kernel_size=(5, 5), stride=(1, 1))  (ReLU0): ReLU()  (maxp0): MaxPool2d(kernel_size=2, stride=2, padding=0, dilation=1, ceil_mode=False)  (flatten): Flatten(start_dim=1, end_dim=-1)  (output): Linear(in_features=512, out_features=4, bias=True))
13, 2,5,1,1,256,[… None,None,16,9,34104,0.00018221139907836914,6.214137554168701,2,5,1,1,256,Sequential(  (conv0): Conv2d(1, 2, kernel_size=(5, 5), stride=(1, 1))  (ReLU0): ReLU()  (maxp0): MaxPool2d(kernel_size=2, stride=2, padding=0, dilation=1, ceil_mode=False)  (flatten): Flatten(start_dim=1, end_dim=-1)  (h0): Linear(in_features=128, out_features=256, bias=True)  (hReLU0): ReLU()  (output): Linear(in_features=256, out_features=4, bias=True))
14, 4,5,1,1,512,[… None,None,8,5,133740,0.00017908334732055664,23.950606870651246,4,5,1,1,512,Sequential(  (conv0): Conv2d(1, 4, kernel_size=(5, 5), stride=(1, 1))  (ReLU0): ReLU()  (maxp0): MaxPool2d(kernel_size=2, stride=2, padding=0, dilation=1, ceil_mode=False)  (flatten): Flatten(start_dim=1, end_dim=-1)  (h0): Linear(in_features=256, out_features=512, bias=True)  (hReLU0): ReLU()  (output): Linear(in_features=512, out_features=4, bias=True))
15, 6,3,1,1,128,[… None,None,8,5,62912,0.00017947912216186523,11.291390533447265,6,3,1,1,128,Sequential(  (conv0): Conv2d(1, 6, kernel_size=(3, 3), stride=(1, 1))  (ReLU0): ReLU()  (maxp0): MaxPool2d(kernel_size=2, stride=2, padding=0, dilation=1, ceil_mode=False)  (flatten): Flatten(start_dim=1, end_dim=-1)  (h0): Linear(in_features=486, out_features=128, bias=True)  (hReLU0): ReLU()  (output): Linear(in_features=128, out_features=4, bias=True))
16, 12,5,2,0,128,[… None,None,8,4,4120,0.00020322561264038086,0.8372895240783691,12,5,2,0,128,Sequential(  (conv0): Conv2d(1, 12, kernel_size=(5, 5), stride=(1, 1))  (ReLU0): ReLU()  (maxp0): MaxPool2d(kernel_size=2, stride=2, padding=0, dilation=1, ceil_mode=False)  (conv1): Conv2d(12, 12, kernel_size=(5, 5), stride=(1, 1))  (ReLU1): ReLU()  (maxp1): MaxPool2d(kernel_size=2, stride=2, padding=0, dilation=1, ceil_mode=False)  (flatten): Flatten(start_dim=1, end_dim=-1)  (output): Linear(in_features=48, out_features=4, bias=True))
17, 10,3,2,1,256,[… None,None,11,8,25334,0.00025067806243896486,6.350678033828736,10,3,2,1,256,Sequential(  (conv0): Conv2d(1, 10, kernel_size=(3, 3), stride=(1, 1))  (ReLU0): ReLU()  (maxp0): MaxPool2d(kernel_size=2, stride=2, padding=0, dilation=1, ceil_mode=False)  (conv1): Conv2d(10, 10, kernel_size=(3, 3), stride=(1, 1))  (ReLU1): ReLU()  (maxp1): MaxPool2d(kernel_size=2, stride=2, padding=0, dilation=1, ceil_mode=False)  (flatten): Flatten(start_dim=1, end_dim=-1)  (h0): Linear(in_features=90, out_features=256, bias=True)  (hReLU0): ReLU()  (output): Linear(in_features=256, out_features=4, bias=True))
18, 8,5,1,1,512,[… None,None,7,2,264916,0.0001823139190673828,48.297874183654784,8,5,1,1,512,Sequential(  (conv0): Conv2d(1, 8, kernel_size=(5, 5), stride=(1, 1))  (ReLU0): ReLU()  (maxp0): MaxPool2d(kernel_size=2, stride=2, padding=0, dilation=1, ceil_mode=False)  (flatten): Flatten(start_dim=1, end_dim=-1)  (h0): Linear(in_features=512, out_features=512, bias=True)  (hReLU0): ReLU()  (output): Linear(in_features=512, out_features=4, bias=True))
19, 2,5,1,1,64,[… None,None,None,16,8568,0.00018231868743896485,1.562106513977051,2,5,1,1,64,Sequential(  (conv0): Conv2d(1, 2, kernel_size=(5, 5), stride=(1, 1))  (ReLU0): ReLU()  (maxp0): MaxPool2d(kernel_size=2, stride=2, padding=0, dilation=1, ceil_mode=False)  (flatten): Flatten(start_dim=1, end_dim=-1)  (h0): Linear(in_features=128, out_features=64, bias=True)  (hReLU0): ReLU()  (output): Linear(in_features=64, out_features=4, bias=True))
20, 6,5,1,1,64,[… None,None,9,5,25056,0.00018240928649902345,4.570447082519531,6,5,1,1,64,Sequential(  (conv0): Conv2d(1, 6, kernel_size=(5, 5), stride=(1, 1))  (ReLU0): ReLU()  (maxp0): MaxPool2d(kernel_size=2, stride=2, padding=0, dilation=1, ceil_mode=False)  (flatten): Flatten(start_dim=1, end_dim=-1)  (h0): Linear(in_features=384, out_features=64, bias=True)  (hReLU0): ReLU()  (output): Linear(in_features=64, out_features=4, bias=True))
21, 12,5,2,1,256,[… None,15,5,5,17496,0.0002520585060119629,4.410015621185303,12,5,2,1,256,Sequential(  (conv0): Conv2d(1, 12, kernel_size=(5, 5), stride=(1, 1))  (ReLU0): ReLU()  (maxp0): MaxPool2d(kernel_size=2, stride=2, padding=0, dilation=1, ceil_mode=False)  (conv1): Conv2d(12, 12, kernel_size=(5, 5), stride=(1, 1))  (ReLU1): ReLU()  (maxp1): MaxPool2d(kernel_size=2, stride=2, padding=0, dilation=1, ceil_mode=False)  (flatten): Flatten(start_dim=1, end_dim=-1)  (h0): Linear(in_features=48, out_features=256, bias=True)  (hReLU0): ReLU()  (output): Linear(in_features=256, out_features=4, bias=True))
22, 6,3,1,1,512,[… None,None,10,3,251456,0.00018109798431396485,45.53817474365235,6,3,1,1,512,Sequential(  (conv0): Conv2d(1, 6, kernel_size=(3, 3), stride=(1, 1))  (ReLU0): ReLU()  (maxp0): MaxPool2d(kernel_size=2, stride=2, padding=0, dilation=1, ceil_mode=False)  (flatten): Flatten(start_dim=1, end_dim=-1)  (h0): Linear(in_features=486, out_features=512, bias=True)  (hReLU0): ReLU()  (output): Linear(in_features=512, out_features=4, bias=True))
23, 6,5,2,0,64,[… None,None,None,13,1162,0.00020411968231201172,0.2371870708465576,6,5,2,0,64,Sequential(  (conv0): Conv2d(1, 6, kernel_size=(5, 5), stride=(1, 1))  (ReLU0): ReLU()  (maxp0): MaxPool2d(kernel_size=2, stride=2, padding=0, dilation=1, ceil_mode=False)  (conv1): Conv2d(6, 6, kernel_size=(5, 5), stride=(1, 1))  (ReLU1): ReLU()  (maxp1): MaxPool2d(kernel_size=2, stride=2, padding=0, dilation=1, ceil_mode=False)  (flatten): Flatten(start_dim=1, end_dim=-1)  (output): Linear(in_features=24, out_features=4, bias=True))
24, 12,5,2,0,256,[… None,None,12,6,4120,0.000204010009765625,0.8405212402343749,12,5,2,0,256,Sequential(  (conv0): Conv2d(1, 12, kernel_size=(5, 5), stride=(1, 1))  (ReLU0): ReLU()  (maxp0): MaxPool2d(kernel_size=2, stride=2, padding=0, dilation=1, ceil_mode=False)  (conv1): Conv2d(12, 12, kernel_size=(5, 5), stride=(1, 1))  (ReLU1): ReLU()  (maxp1): MaxPool2d(kernel_size=2, stride=2, padding=0, dilation=1, ceil_mode=False)  (flatten): Flatten(start_dim=1, end_dim=-1)  (output): Linear(in_features=48, out_features=4, bias=True))
25, 10,5,2,1,512,[… None,23,9,5,25814,0.0002529025077819824,6.528425335884094,10,5,2,1,512,Sequential(  (conv0): Conv2d(1, 10, kernel_size=(5, 5), stride=(1, 1))  (ReLU0): ReLU()  (maxp0): MaxPool2d(kernel_size=2, stride=2, padding=0, dilation=1, ceil_mode=False)  (conv1): Conv2d(10, 10, kernel_size=(5, 5), stride=(1, 1))  (ReLU1): ReLU()  (maxp1): MaxPool2d(kernel_size=2, stride=2, padding=0, dilation=1, ceil_mode=False)  (flatten): Flatten(start_dim=1, end_dim=-1)  (h0): Linear(in_features=40, out_features=512, bias=True)  (hReLU0): ReLU()  (output): Linear(in_features=512, out_features=4, bias=True))
26, 6,5,2,0,128,[… None,None,24,11,1162,0.00020570755004882811,0.23903217315673828,6,5,2,0,128,Sequential(  (conv0): Conv2d(1, 6, kernel_size=(5, 5), stride=(1, 1))  (ReLU0): ReLU()  (maxp0): MaxPool2d(kernel_size=2, stride=2, padding=0, dilation=1, ceil_mode=False)  (conv1): Conv2d(6, 6, kernel_size=(5, 5), stride=(1, 1))  (ReLU1): ReLU()  (maxp1): MaxPool2d(kernel_size=2, stride=2, padding=0, dilation=1, ceil_mode=False)  (flatten): Flatten(start_dim=1, end_dim=-1)  (output): Linear(in_features=24, out_features=4, bias=True))
27, 8,5,2,1,256,[… None,None,11,6,11292,0.0002517223358154297,2.842448616027832,8,5,2,1,256,Sequential(  (conv0): Conv2d(1, 8, kernel_size=(5, 5), stride=(1, 1))  (ReLU0): ReLU()  (maxp0): MaxPool2d(kernel_size=2, stride=2, padding=0, dilation=1, ceil_mode=False)  (conv1): Conv2d(8, 8, kernel_size=(5, 5), stride=(1, 1))  (ReLU1): ReLU()  (maxp1): MaxPool2d(kernel_size=2, stride=2, padding=0, dilation=1, ceil_mode=False)  (flatten): Flatten(start_dim=1, end_dim=-1)  (h0): Linear(in_features=32, out_features=256, bias=True)  (hReLU0): ReLU()  (output): Linear(in_features=256, out_features=4, bias=True))
28, 4,3,2,0,256,[… None,None,None,23,336,0.00020353794097900392,0.06838874816894532,4,3,2,0,256,Sequential(  (conv0): Conv2d(1, 4, kernel_size=(3, 3), stride=(1, 1))  (ReLU0): ReLU()  (maxp0): MaxPool2d(kernel_size=2, stride=2, padding=0, dilation=1, ceil_mode=False)  (conv1): Conv2d(4, 4, kernel_size=(3, 3), stride=(1, 1))  (ReLU1): ReLU()  (maxp1): MaxPool2d(kernel_size=2, stride=2, padding=0, dilation=1, ceil_mode=False)  (flatten): Flatten(start_dim=1, end_dim=-1)  (output): Linear(in_features=36, out_features=4, bias=True))
29, 4,3,2,2,256,[… None,None,15,8,76480,0.0002973341941833496,22.740119171142577,4,3,2,2,256,Sequential(  (conv0): Conv2d(1, 4, kernel_size=(3, 3), stride=(1, 1))  (ReLU0): ReLU()  (maxp0): MaxPool2d(kernel_size=2, stride=2, padding=0, dilation=1, ceil_mode=False)  (conv1): Conv2d(4, 4, kernel_size=(3, 3), stride=(1, 1))  (ReLU1): ReLU()  (maxp1): MaxPool2d(kernel_size=2, stride=2, padding=0, dilation=1, ceil_mode=False)  (flatten): Flatten(start_dim=1, end_dim=-1)  (h0): Linear(in_features=36, out_features=256, bias=True)  (hReLU0): ReLU()  (h1): Linear(in_features=256, out_features=256, bias=True)  (hReLU1): ReLU()  (output): Linear(in_features=256, out_features=4, bias=True))
30, 4,5,1,1,64,[… None,None,17,3,16812,0.00017942905426025392,3.016561260223389,4,5,1,1,64,Sequential(  (conv0): Conv2d(1, 4, kernel_size=(5, 5), stride=(1, 1))  (ReLU0): ReLU()  (maxp0): MaxPool2d(kernel_size=2, stride=2, padding=0, dilation=1, ceil_mode=False)  (flatten): Flatten(start_dim=1, end_dim=-1)  (h0): Linear(in_features=256, out_features=64, bias=True)  (hReLU0): ReLU()  (output): Linear(in_features=64, out_features=4, bias=True))
31, 8,3,1,0,512,[… None,None,None,9,2676,0.0001369810104370117,0.3665611839294433,8,3,1,0,512,Sequential(  (conv0): Conv2d(1, 8, kernel_size=(3, 3), stride=(1, 1))  (ReLU0): ReLU()  (maxp0): MaxPool2d(kernel_size=2, stride=2, padding=0, dilation=1, ceil_mode=False)  (flatten): Flatten(start_dim=1, end_dim=-1)  (output): Linear(in_features=648, out_features=4, bias=True))
32, 12,3,1,1,128,[… None,None,6,4,125180,0.00018418073654174804,23.05574460029602,12,3,1,1,128,Sequential(  (conv0): Conv2d(1, 12, kernel_size=(3, 3), stride=(1, 1))  (ReLU0): ReLU()  (maxp0): MaxPool2d(kernel_size=2, stride=2, padding=0, dilation=1, ceil_mode=False)  (flatten): Flatten(start_dim=1, end_dim=-1)  (h0): Linear(in_features=972, out_features=128, bias=True)  (hReLU0): ReLU()  (output): Linear(in_features=128, out_features=4, bias=True))
33, 6,5,1,0,512,[… None,None,18,7,1696,0.0001354503631591797,0.22972381591796875,6,5,1,0,512,Sequential(  (conv0): Conv2d(1, 6, kernel_size=(5, 5), stride=(1, 1))  (ReLU0): ReLU()  (maxp0): MaxPool2d(kernel_size=2, stride=2, padding=0, dilation=1, ceil_mode=False)  (flatten): Flatten(start_dim=1, end_dim=-1)  (output): Linear(in_features=384, out_features=4, bias=True))
34, 6,3,1,0,512,[… None,None,17,8,2008,0.00013507604598999022,0.27123270034790037,6,3,1,0,512,Sequential(  (conv0): Conv2d(1, 6, kernel_size=(3, 3), stride=(1, 1))  (ReLU0): ReLU()  (maxp0): MaxPool2d(kernel_size=2, stride=2, padding=0, dilation=1, ceil_mode=False)  (flatten): Flatten(start_dim=1, end_dim=-1)  (output): Linear(in_features=486, out_features=4, bias=True))
35, 10,5,2,0,64,[… None,22,6,3,2934,0.0002059483528137207,0.6042524671554566,10,5,2,0,64,Sequential(  (conv0): Conv2d(1, 10, kernel_size=(5, 5), stride=(1, 1))  (ReLU0): ReLU()  (maxp0): MaxPool2d(kernel_size=2, stride=2, padding=0, dilation=1, ceil_mode=False)  (conv1): Conv2d(10, 10, kernel_size=(5, 5), stride=(1, 1))  (ReLU1): ReLU()  (maxp1): MaxPool2d(kernel_size=2, stride=2, padding=0, dilation=1, ceil_mode=False)  (flatten): Flatten(start_dim=1, end_dim=-1)  (output): Linear(in_features=40, out_features=4, bias=True))
36, 8,5,2,2,128,[… None,None,10,6,23068,0.0002978968620300293,6.871884813308716,8,5,2,2,128,Sequential(  (conv0): Conv2d(1, 8, kernel_size=(5, 5), stride=(1, 1))  (ReLU0): ReLU()  (maxp0): MaxPool2d(kernel_size=2, stride=2, padding=0, dilation=1, ceil_mode=False)  (conv1): Conv2d(8, 8, kernel_size=(5, 5), stride=(1, 1))  (ReLU1): ReLU()  (maxp1): MaxPool2d(kernel_size=2, stride=2, padding=0, dilation=1, ceil_mode=False)  (flatten): Flatten(start_dim=1, end_dim=-1)  (h0): Linear(in_features=32, out_features=128, bias=True)  (hReLU0): ReLU()  (h1): Linear(in_features=128, out_features=128, bias=True)  (hReLU1): ReLU()  (output): Linear(in_features=128, out_features=4, bias=True))
37, 2,3,2,2,64,[… None,None,None,None,5694,0.00029688119888305665,1.6904415464401246,2,3,2,2,64,Sequential(  (conv0): Conv2d(1, 2, kernel_size=(3, 3), stride=(1, 1))  (ReLU0): ReLU()  (maxp0): MaxPool2d(kernel_size=2, stride=2, padding=0, dilation=1, ceil_mode=False)  (conv1): Conv2d(2, 2, kernel_size=(3, 3), stride=(1, 1))  (ReLU1): ReLU()  (maxp1): MaxPool2d(kernel_size=2, stride=2, padding=0, dilation=1, ceil_mode=False)  (flatten): Flatten(start_dim=1, end_dim=-1)  (h0): Linear(in_features=18, out_features=64, bias=True)  (hReLU0): ReLU()  (h1): Linear(in_features=64, out_features=64, bias=True)  (hReLU1): ReLU()  (output): Linear(in_features=64, out_features=4, bias=True))
38, 2,5,1,2,512,[… None,None,None,4,330808,0.00022727489471435547,75.1843533706665,2,5,1,2,512,Sequential(  (conv0): Conv2d(1, 2, kernel_size=(5, 5), stride=(1, 1))  (ReLU0): ReLU()  (maxp0): MaxPool2d(kernel_size=2, stride=2, padding=0, dilation=1, ceil_mode=False)  (flatten): Flatten(start_dim=1, end_dim=-1)  (h0): Linear(in_features=128, out_features=512, bias=True)  (hReLU0): ReLU()  (h1): Linear(in_features=512, out_features=512, bias=True)  (hReLU1): ReLU()  (output): Linear(in_features=512, out_features=4, bias=True))
39, 8,5,1,1,64,[… None,None,11,3,33300,0.00018274545669555664,6.085423707962036,8,5,1,1,64,Sequential(  (conv0): Conv2d(1, 8, kernel_size=(5, 5), stride=(1, 1))  (ReLU0): ReLU()  (maxp0): MaxPool2d(kernel_size=2, stride=2, padding=0, dilation=1, ceil_mode=False)  (flatten): Flatten(start_dim=1, end_dim=-1)  (h0): Linear(in_features=512, out_features=64, bias=True)  (hReLU0): ReLU()  (output): Linear(in_features=64, out_features=4, bias=True))
40, 12,3,2,2,64,[… None,21,9,6,12824,0.00029579639434814455,3.793292961120606,12,3,2,2,64,Sequential(  (conv0): Conv2d(1, 12, kernel_size=(3, 3), stride=(1, 1))  (ReLU0): ReLU()  (maxp0): MaxPool2d(kernel_size=2, stride=2, padding=0, dilation=1, ceil_mode=False)  (conv1): Conv2d(12, 12, kernel_size=(3, 3), stride=(1, 1))  (ReLU1): ReLU()  (maxp1): MaxPool2d(kernel_size=2, stride=2, padding=0, dilation=1, ceil_mode=False)  (flatten): Flatten(start_dim=1, end_dim=-1)  (h0): Linear(in_features=108, out_features=64, bias=True)  (hReLU0): ReLU()  (h1): Linear(in_features=64, out_features=64, bias=True)  (hReLU1): ReLU()  (output): Linear(in_features=64, out_features=4, bias=True))
41, 10,3,1,2,512,[… None,None,6,3,680040,0.00022782325744628905,154.9289279937744,10,3,1,2,512,Sequential(  (conv0): Conv2d(1, 10, kernel_size=(3, 3), stride=(1, 1))  (ReLU0): ReLU()  (maxp0): MaxPool2d(kernel_size=2, stride=2, padding=0, dilation=1, ceil_mode=False)  (flatten): Flatten(start_dim=1, end_dim=-1)  (h0): Linear(in_features=810, out_features=512, bias=True)  (hReLU0): ReLU()  (h1): Linear(in_features=512, out_features=512, bias=True)  (hReLU1): ReLU()  (output): Linear(in_features=512, out_features=4, bias=True))
42, 2,3,2,2,256,[… None,None,17,10,71742,0.00029847860336303713,21.413451962471008,2,3,2,2,256,Sequential(  (conv0): Conv2d(1, 2, kernel_size=(3, 3), stride=(1, 1))  (ReLU0): ReLU()  (maxp0): MaxPool2d(kernel_size=2, stride=2, padding=0, dilation=1, ceil_mode=False)  (conv1): Conv2d(2, 2, kernel_size=(3, 3), stride=(1, 1))  (ReLU1): ReLU()  (maxp1): MaxPool2d(kernel_size=2, stride=2, padding=0, dilation=1, ceil_mode=False)  (flatten): Flatten(start_dim=1, end_dim=-1)  (h0): Linear(in_features=18, out_features=256, bias=True)  (hReLU0): ReLU()  (h1): Linear(in_features=256, out_features=256, bias=True)  (hReLU1): ReLU()  (output): Linear(in_features=256, out_features=4, bias=True))
43, 12,3,2,1,256,[… None,25,9,2,30360,0.0002512645721435547,7.628392410278321,12,3,2,1,256,Sequential(  (conv0): Conv2d(1, 12, kernel_size=(3, 3), stride=(1, 1))  (ReLU0): ReLU()  (maxp0): MaxPool2d(kernel_size=2, stride=2, padding=0, dilation=1, ceil_mode=False)  (conv1): Conv2d(12, 12, kernel_size=(3, 3), stride=(1, 1))  (ReLU1): ReLU()  (maxp1): MaxPool2d(kernel_size=2, stride=2, padding=0, dilation=1, ceil_mode=False)  (flatten): Flatten(start_dim=1, end_dim=-1)  (h0): Linear(in_features=108, out_features=256, bias=True)  (hReLU0): ReLU()  (output): Linear(in_features=256, out_features=4, bias=True))
44, 6,3,1,2,256,[… None,18,3,3,191552,0.00023025274276733398,44.10537338256836,6,3,1,2,256,Sequential(  (conv0): Conv2d(1, 6, kernel_size=(3, 3), stride=(1, 1))  (ReLU0): ReLU()  (maxp0): MaxPool2d(kernel_size=2, stride=2, padding=0, dilation=1, ceil_mode=False)  (flatten): Flatten(start_dim=1, end_dim=-1)  (h0): Linear(in_features=486, out_features=256, bias=True)  (hReLU0): ReLU()  (h1): Linear(in_features=256, out_features=256, bias=True)  (hReLU1): ReLU()  (output): Linear(in_features=256, out_features=4, bias=True))
45, 8,3,1,2,256,[… None,None,10,3,233044,0.00022608518600463867,52.68779608726501,8,3,1,2,256,Sequential(  (conv0): Conv2d(1, 8, kernel_size=(3, 3), stride=(1, 1))  (ReLU0): ReLU()  (maxp0): MaxPool2d(kernel_size=2, stride=2, padding=0, dilation=1, ceil_mode=False)  (flatten): Flatten(start_dim=1, end_dim=-1)  (h0): Linear(in_features=648, out_features=256, bias=True)  (hReLU0): ReLU()  (h1): Linear(in_features=256, out_features=256, bias=True)  (hReLU1): ReLU()  (output): Linear(in_features=256, out_features=4, bias=True))
46, 6,3,2,1,64,[… None,None,10,5,4170,0.00024982690811157224,1.0417782068252563,6,3,2,1,64,Sequential(  (conv0): Conv2d(1, 6, kernel_size=(3, 3), stride=(1, 1))  (ReLU0): ReLU()  (maxp0): MaxPool2d(kernel_size=2, stride=2, padding=0, dilation=1, ceil_mode=False)  (conv1): Conv2d(6, 6, kernel_size=(3, 3), stride=(1, 1))  (ReLU1): ReLU()  (maxp1): MaxPool2d(kernel_size=2, stride=2, padding=0, dilation=1, ceil_mode=False)  (flatten): Flatten(start_dim=1, end_dim=-1)  (h0): Linear(in_features=54, out_features=64, bias=True)  (hReLU0): ReLU()  (output): Linear(in_features=64, out_features=4, bias=True))
47, 6,5,1,2,256,[… None,13,8,5,165536,0.00022756576538085938,37.67032653808594,6,5,1,2,256,Sequential(  (conv0): Conv2d(1, 6, kernel_size=(5, 5), stride=(1, 1))  (ReLU0): ReLU()  (maxp0): MaxPool2d(kernel_size=2, stride=2, padding=0, dilation=1, ceil_mode=False)  (flatten): Flatten(start_dim=1, end_dim=-1)  (h0): Linear(in_features=384, out_features=256, bias=True)  (hReLU0): ReLU()  (h1): Linear(in_features=256, out_features=256, bias=True)  (hReLU1): ReLU()  (output): Linear(in_features=256, out_features=4, bias=True))
48, 6,3,1,2,128,[… None,None,4,4,79424,0.00022419929504394532,17.806804809570313,6,3,1,2,128,Sequential(  (conv0): Conv2d(1, 6, kernel_size=(3, 3), stride=(1, 1))  (ReLU0): ReLU()  (maxp0): MaxPool2d(kernel_size=2, stride=2, padding=0, dilation=1, ceil_mode=False)  (flatten): Flatten(start_dim=1, end_dim=-1)  (h0): Linear(in_features=486, out_features=128, bias=True)  (hReLU0): ReLU()  (h1): Linear(in_features=128, out_features=128, bias=True)  (hReLU1): ReLU()  (output): Linear(in_features=128, out_features=4, bias=True))
49, 12,3,1,1,256,[… None,None,3,2,250236,0.000182797908782959,45.742617502212525,12,3,1,1,256,Sequential(  (conv0): Conv2d(1, 12, kernel_size=(3, 3), stride=(1, 1))  (ReLU0): ReLU()  (maxp0): MaxPool2d(kernel_size=2, stride=2, padding=0, dilation=1, ceil_mode=False)  (flatten): Flatten(start_dim=1, end_dim=-1)  (h0): Linear(in_features=972, out_features=256, bias=True)  (hReLU0): ReLU()  (output): Linear(in_features=256, out_features=4, bias=True))
50, 10,3,1,1,256,[… None,None,3,1,208744,0.0001826333999633789,38.123626441955565,10,3,1,1,256,Sequential(  (conv0): Conv2d(1, 10, kernel_size=(3, 3), stride=(1, 1))  (ReLU0): ReLU()  (maxp0): MaxPool2d(kernel_size=2, stride=2, padding=0, dilation=1, ceil_mode=False)  (flatten): Flatten(start_dim=1, end_dim=-1)  (h0): Linear(in_features=810, out_features=256, bias=True)  (hReLU0): ReLU()  (output): Linear(in_features=256, out_features=4, bias=True))
51, 6,5,1,0,128,[… None,None,15,7,1696,0.00013527154922485352,0.22942054748535157,6,5,1,0,128,Sequential(  (conv0): Conv2d(1, 6, kernel_size=(5, 5), stride=(1, 1))  (ReLU0): ReLU()  (maxp0): MaxPool2d(kernel_size=2, stride=2, padding=0, dilation=1, ceil_mode=False)  (flatten): Flatten(start_dim=1, end_dim=-1)  (output): Linear(in_features=384, out_features=4, bias=True))
52, 6,5,2,2,256,[… None,14,7,5,74282,0.0002967071533203125,22.040000762939453,6,5,2,2,256,Sequential(  (conv0): Conv2d(1, 6, kernel_size=(5, 5), stride=(1, 1))  (ReLU0): ReLU()  (maxp0): MaxPool2d(kernel_size=2, stride=2, padding=0, dilation=1, ceil_mode=False)  (conv1): Conv2d(6, 6, kernel_size=(5, 5), stride=(1, 1))  (ReLU1): ReLU()  (maxp1): MaxPool2d(kernel_size=2, stride=2, padding=0, dilation=1, ceil_mode=False)  (flatten): Flatten(start_dim=1, end_dim=-1)  (h0): Linear(in_features=24, out_features=256, bias=True)  (hReLU0): ReLU()  (h1): Linear(in_features=256, out_features=256, bias=True)  (hReLU1): ReLU()  (output): Linear(in_features=256, out_features=4, bias=True))
53, 2,3,2,1,512,[… None,None,18,4,11838,0.0002526378631591797,2.990727024078369,2,3,2,1,512,Sequential(  (conv0): Conv2d(1, 2, kernel_size=(3, 3), stride=(1, 1))  (ReLU0): ReLU()  (maxp0): MaxPool2d(kernel_size=2, stride=2, padding=0, dilation=1, ceil_mode=False)  (conv1): Conv2d(2, 2, kernel_size=(3, 3), stride=(1, 1))  (ReLU1): ReLU()  (maxp1): MaxPool2d(kernel_size=2, stride=2, padding=0, dilation=1, ceil_mode=False)  (flatten): Flatten(start_dim=1, end_dim=-1)  (h0): Linear(in_features=18, out_features=512, bias=True)  (hReLU0): ReLU()  (output): Linear(in_features=512, out_features=4, bias=True))
54, 2,3,1,0,512,[… None,None,None,18,672,0.00013366460800170898,0.08982261657714843,2,3,1,0,512,Sequential(  (conv0): Conv2d(1, 2, kernel_size=(3, 3), stride=(1, 1))  (ReLU0): ReLU()  (maxp0): MaxPool2d(kernel_size=2, stride=2, padding=0, dilation=1, ceil_mode=False)  (flatten): Flatten(start_dim=1, end_dim=-1)  (output): Linear(in_features=162, out_features=4, bias=True))
55, 10,3,1,0,512,[… None,None,4,3,3344,0.00013454437255859376,0.4499163818359375,10,3,1,0,512,Sequential(  (conv0): Conv2d(1, 10, kernel_size=(3, 3), stride=(1, 1))  (ReLU0): ReLU()  (maxp0): MaxPool2d(kernel_size=2, stride=2, padding=0, dilation=1, ceil_mode=False)  (flatten): Flatten(start_dim=1, end_dim=-1)  (output): Linear(in_features=810, out_features=4, bias=True))
56, 4,3,2,1,128,[… None,None,15,11,5440,0.0002573895454406738,1.4001991271972656,4,3,2,1,128,Sequential(  (conv0): Conv2d(1, 4, kernel_size=(3, 3), stride=(1, 1))  (ReLU0): ReLU()  (maxp0): MaxPool2d(kernel_size=2, stride=2, padding=0, dilation=1, ceil_mode=False)  (conv1): Conv2d(4, 4, kernel_size=(3, 3), stride=(1, 1))  (ReLU1): ReLU()  (maxp1): MaxPool2d(kernel_size=2, stride=2, padding=0, dilation=1, ceil_mode=False)  (flatten): Flatten(start_dim=1, end_dim=-1)  (h0): Linear(in_features=36, out_features=128, bias=True)  (hReLU0): ReLU()  (output): Linear(in_features=128, out_features=4, bias=True))
57, 6,5,1,1,256,[… None,None,5,3,99744,0.0001838541030883789,18.338343658447265,6,5,1,1,256,Sequential(  (conv0): Conv2d(1, 6, kernel_size=(5, 5), stride=(1, 1))  (ReLU0): ReLU()  (maxp0): MaxPool2d(kernel_size=2, stride=2, padding=0, dilation=1, ceil_mode=False)  (flatten): Flatten(start_dim=1, end_dim=-1)  (h0): Linear(in_features=384, out_features=256, bias=True)  (hReLU0): ReLU()  (output): Linear(in_features=256, out_features=4, bias=True))
58, 6,3,2,0,64,[… None,None,None,25,610,0.00020907878875732423,0.12753806114196778,6,3,2,0,64,Sequential(  (conv0): Conv2d(1, 6, kernel_size=(3, 3), stride=(1, 1))  (ReLU0): ReLU()  (maxp0): MaxPool2d(kernel_size=2, stride=2, padding=0, dilation=1, ceil_mode=False)  (conv1): Conv2d(6, 6, kernel_size=(3, 3), stride=(1, 1))  (ReLU1): ReLU()  (maxp1): MaxPool2d(kernel_size=2, stride=2, padding=0, dilation=1, ceil_mode=False)  (flatten): Flatten(start_dim=1, end_dim=-1)  (output): Linear(in_features=54, out_features=4, bias=True))
59, 10,3,1,1,512,[… None,None,4,4,417384,0.0001863265037536621,77.7697014427185,10,3,1,1,512,Sequential(  (conv0): Conv2d(1, 10, kernel_size=(3, 3), stride=(1, 1))  (ReLU0): ReLU()  (maxp0): MaxPool2d(kernel_size=2, stride=2, padding=0, dilation=1, ceil_mode=False)  (flatten): Flatten(start_dim=1, end_dim=-1)  (h0): Linear(in_features=810, out_features=512, bias=True)  (hReLU0): ReLU()  (output): Linear(in_features=512, out_features=4, bias=True))
