model_num, num_kernels, kernel_depth,num_hidden,hidden_size,minBC,E95,E90,E80,E70,P,T,cost,num_kernels,kernel_size,kernel_depth,num_hidden,hidden_size,model_str,model_str
0, 8,5,2,1,128,[… None,None,7,4,6556,0.0002520442008972168,1.6524017810821534,8,5,2,1,128,Sequential(  (conv0): Conv2d(1, 8, kernel_size=(5, 5), stride=(1, 1))  (ReLU0): ReLU()  (maxp0): MaxPool2d(kernel_size=2, stride=2, padding=0, dilation=1, ceil_mode=False)  (conv1): Conv2d(8, 8, kernel_size=(5, 5), stride=(1, 1))  (ReLU1): ReLU()  (maxp1): MaxPool2d(kernel_size=2, stride=2, padding=0, dilation=1, ceil_mode=False)  (flatten): Flatten(start_dim=1, end_dim=-1)  (h0): Linear(in_features=32, out_features=128, bias=True)  (hReLU0): ReLU()  (output): Linear(in_features=128, out_features=4, bias=True))
1, 4,5,1,1,256,[… None,19,8,4,66924,0.00018041610717773438,12.074167556762696,4,5,1,1,256,Sequential(  (conv0): Conv2d(1, 4, kernel_size=(5, 5), stride=(1, 1))  (ReLU0): ReLU()  (maxp0): MaxPool2d(kernel_size=2, stride=2, padding=0, dilation=1, ceil_mode=False)  (flatten): Flatten(start_dim=1, end_dim=-1)  (h0): Linear(in_features=256, out_features=256, bias=True)  (hReLU0): ReLU()  (output): Linear(in_features=256, out_features=4, bias=True))
2, 12,5,1,1,128,[… None,None,4,3,99260,0.00018186330795288085,18.051751947402952,12,5,1,1,128,Sequential(  (conv0): Conv2d(1, 12, kernel_size=(5, 5), stride=(1, 1))  (ReLU0): ReLU()  (maxp0): MaxPool2d(kernel_size=2, stride=2, padding=0, dilation=1, ceil_mode=False)  (flatten): Flatten(start_dim=1, end_dim=-1)  (h0): Linear(in_features=768, out_features=128, bias=True)  (hReLU0): ReLU()  (output): Linear(in_features=128, out_features=4, bias=True))
3, 12,3,2,2,256,[… None,None,7,3,96152,0.00029855966567993164,28.707108974456787,12,3,2,2,256,Sequential(  (conv0): Conv2d(1, 12, kernel_size=(3, 3), stride=(1, 1))  (ReLU0): ReLU()  (maxp0): MaxPool2d(kernel_size=2, stride=2, padding=0, dilation=1, ceil_mode=False)  (conv1): Conv2d(12, 12, kernel_size=(3, 3), stride=(1, 1))  (ReLU1): ReLU()  (maxp1): MaxPool2d(kernel_size=2, stride=2, padding=0, dilation=1, ceil_mode=False)  (flatten): Flatten(start_dim=1, end_dim=-1)  (h0): Linear(in_features=108, out_features=256, bias=True)  (hReLU0): ReLU()  (h1): Linear(in_features=256, out_features=256, bias=True)  (hReLU1): ReLU()  (output): Linear(in_features=256, out_features=4, bias=True))
4, 8,3,1,1,512,[… None,None,15,4,334420,0.00018176555633544922,60.786037349700926,8,3,1,1,512,Sequential(  (conv0): Conv2d(1, 8, kernel_size=(3, 3), stride=(1, 1))  (ReLU0): ReLU()  (maxp0): MaxPool2d(kernel_size=2, stride=2, padding=0, dilation=1, ceil_mode=False)  (flatten): Flatten(start_dim=1, end_dim=-1)  (h0): Linear(in_features=648, out_features=512, bias=True)  (hReLU0): ReLU()  (output): Linear(in_features=512, out_features=4, bias=True))
5, 8,3,2,0,512,[… None,None,22,7,956,0.00020347833633422853,0.19452528953552248,8,3,2,0,512,Sequential(  (conv0): Conv2d(1, 8, kernel_size=(3, 3), stride=(1, 1))  (ReLU0): ReLU()  (maxp0): MaxPool2d(kernel_size=2, stride=2, padding=0, dilation=1, ceil_mode=False)  (conv1): Conv2d(8, 8, kernel_size=(3, 3), stride=(1, 1))  (ReLU1): ReLU()  (maxp1): MaxPool2d(kernel_size=2, stride=2, padding=0, dilation=1, ceil_mode=False)  (flatten): Flatten(start_dim=1, end_dim=-1)  (output): Linear(in_features=72, out_features=4, bias=True))
6, 10,3,2,2,128,[… None,None,10,7,29686,0.00029617786407470703,8.792336072921753,10,3,2,2,128,Sequential(  (conv0): Conv2d(1, 10, kernel_size=(3, 3), stride=(1, 1))  (ReLU0): ReLU()  (maxp0): MaxPool2d(kernel_size=2, stride=2, padding=0, dilation=1, ceil_mode=False)  (conv1): Conv2d(10, 10, kernel_size=(3, 3), stride=(1, 1))  (ReLU1): ReLU()  (maxp1): MaxPool2d(kernel_size=2, stride=2, padding=0, dilation=1, ceil_mode=False)  (flatten): Flatten(start_dim=1, end_dim=-1)  (h0): Linear(in_features=90, out_features=128, bias=True)  (hReLU0): ReLU()  (h1): Linear(in_features=128, out_features=128, bias=True)  (hReLU1): ReLU()  (output): Linear(in_features=128, out_features=4, bias=True))
7, 4,3,1,2,64,[… None,None,7,3,25260,0.00022494792938232422,5.68218469619751,4,3,1,2,64,Sequential(  (conv0): Conv2d(1, 4, kernel_size=(3, 3), stride=(1, 1))  (ReLU0): ReLU()  (maxp0): MaxPool2d(kernel_size=2, stride=2, padding=0, dilation=1, ceil_mode=False)  (flatten): Flatten(start_dim=1, end_dim=-1)  (h0): Linear(in_features=324, out_features=64, bias=True)  (hReLU0): ReLU()  (h1): Linear(in_features=64, out_features=64, bias=True)  (hReLU1): ReLU()  (output): Linear(in_features=64, out_features=4, bias=True))
8, 12,5,1,1,512,[… None,None,5,3,396092,0.00018219709396362306,72.16681134223938,12,5,1,1,512,Sequential(  (conv0): Conv2d(1, 12, kernel_size=(5, 5), stride=(1, 1))  (ReLU0): ReLU()  (maxp0): MaxPool2d(kernel_size=2, stride=2, padding=0, dilation=1, ceil_mode=False)  (flatten): Flatten(start_dim=1, end_dim=-1)  (h0): Linear(in_features=768, out_features=512, bias=True)  (hReLU0): ReLU()  (output): Linear(in_features=512, out_features=4, bias=True))
9, 4,5,2,0,128,[… None,None,None,18,576,0.00020207643508911134,0.11639602661132813,4,5,2,0,128,Sequential(  (conv0): Conv2d(1, 4, kernel_size=(5, 5), stride=(1, 1))  (ReLU0): ReLU()  (maxp0): MaxPool2d(kernel_size=2, stride=2, padding=0, dilation=1, ceil_mode=False)  (conv1): Conv2d(4, 4, kernel_size=(5, 5), stride=(1, 1))  (ReLU1): ReLU()  (maxp1): MaxPool2d(kernel_size=2, stride=2, padding=0, dilation=1, ceil_mode=False)  (flatten): Flatten(start_dim=1, end_dim=-1)  (output): Linear(in_features=16, out_features=4, bias=True))
10, 6,3,2,1,128,[… None,None,20,10,7946,0.0002508902549743652,1.993573966026306,6,3,2,1,128,Sequential(  (conv0): Conv2d(1, 6, kernel_size=(3, 3), stride=(1, 1))  (ReLU0): ReLU()  (maxp0): MaxPool2d(kernel_size=2, stride=2, padding=0, dilation=1, ceil_mode=False)  (conv1): Conv2d(6, 6, kernel_size=(3, 3), stride=(1, 1))  (ReLU1): ReLU()  (maxp1): MaxPool2d(kernel_size=2, stride=2, padding=0, dilation=1, ceil_mode=False)  (flatten): Flatten(start_dim=1, end_dim=-1)  (h0): Linear(in_features=54, out_features=128, bias=True)  (hReLU0): ReLU()  (output): Linear(in_features=128, out_features=4, bias=True))
11, 10,3,1,1,64,[… None,None,7,5,52264,0.00018111228942871093,9.465652694702149,10,3,1,1,64,Sequential(  (conv0): Conv2d(1, 10, kernel_size=(3, 3), stride=(1, 1))  (ReLU0): ReLU()  (maxp0): MaxPool2d(kernel_size=2, stride=2, padding=0, dilation=1, ceil_mode=False)  (flatten): Flatten(start_dim=1, end_dim=-1)  (h0): Linear(in_features=810, out_features=64, bias=True)  (hReLU0): ReLU()  (output): Linear(in_features=64, out_features=4, bias=True))
12, 8,5,1,0,512,[… None,None,15,5,2260,0.00013423442840576171,0.3033698081970215,8,5,1,0,512,Sequential(  (conv0): Conv2d(1, 8, kernel_size=(5, 5), stride=(1, 1))  (ReLU0): ReLU()  (maxp0): MaxPool2d(kernel_size=2, stride=2, padding=0, dilation=1, ceil_mode=False)  (flatten): Flatten(start_dim=1, end_dim=-1)  (output): Linear(in_features=512, out_features=4, bias=True))
13, 2,5,1,1,256,[… None,None,8,3,34104,0.0001808285713195801,6.166977596282959,2,5,1,1,256,Sequential(  (conv0): Conv2d(1, 2, kernel_size=(5, 5), stride=(1, 1))  (ReLU0): ReLU()  (maxp0): MaxPool2d(kernel_size=2, stride=2, padding=0, dilation=1, ceil_mode=False)  (flatten): Flatten(start_dim=1, end_dim=-1)  (h0): Linear(in_features=128, out_features=256, bias=True)  (hReLU0): ReLU()  (output): Linear(in_features=256, out_features=4, bias=True))
14, 4,5,1,1,512,[… None,None,7,3,133740,0.00018018007278442383,24.097282934188843,4,5,1,1,512,Sequential(  (conv0): Conv2d(1, 4, kernel_size=(5, 5), stride=(1, 1))  (ReLU0): ReLU()  (maxp0): MaxPool2d(kernel_size=2, stride=2, padding=0, dilation=1, ceil_mode=False)  (flatten): Flatten(start_dim=1, end_dim=-1)  (h0): Linear(in_features=256, out_features=512, bias=True)  (hReLU0): ReLU()  (output): Linear(in_features=512, out_features=4, bias=True))
15, 6,3,1,1,128,[… None,None,7,3,62912,0.00018009662628173828,11.33023895263672,6,3,1,1,128,Sequential(  (conv0): Conv2d(1, 6, kernel_size=(3, 3), stride=(1, 1))  (ReLU0): ReLU()  (maxp0): MaxPool2d(kernel_size=2, stride=2, padding=0, dilation=1, ceil_mode=False)  (flatten): Flatten(start_dim=1, end_dim=-1)  (h0): Linear(in_features=486, out_features=128, bias=True)  (hReLU0): ReLU()  (output): Linear(in_features=128, out_features=4, bias=True))
16, 12,5,2,0,128,[… None,None,10,6,4120,0.0002037978172302246,0.8396470069885253,12,5,2,0,128,Sequential(  (conv0): Conv2d(1, 12, kernel_size=(5, 5), stride=(1, 1))  (ReLU0): ReLU()  (maxp0): MaxPool2d(kernel_size=2, stride=2, padding=0, dilation=1, ceil_mode=False)  (conv1): Conv2d(12, 12, kernel_size=(5, 5), stride=(1, 1))  (ReLU1): ReLU()  (maxp1): MaxPool2d(kernel_size=2, stride=2, padding=0, dilation=1, ceil_mode=False)  (flatten): Flatten(start_dim=1, end_dim=-1)  (output): Linear(in_features=48, out_features=4, bias=True))
17, 10,3,2,1,256,[… None,None,11,6,25334,0.0002539658546447754,6.43397096157074,10,3,2,1,256,Sequential(  (conv0): Conv2d(1, 10, kernel_size=(3, 3), stride=(1, 1))  (ReLU0): ReLU()  (maxp0): MaxPool2d(kernel_size=2, stride=2, padding=0, dilation=1, ceil_mode=False)  (conv1): Conv2d(10, 10, kernel_size=(3, 3), stride=(1, 1))  (ReLU1): ReLU()  (maxp1): MaxPool2d(kernel_size=2, stride=2, padding=0, dilation=1, ceil_mode=False)  (flatten): Flatten(start_dim=1, end_dim=-1)  (h0): Linear(in_features=90, out_features=256, bias=True)  (hReLU0): ReLU()  (output): Linear(in_features=256, out_features=4, bias=True))
18, 8,5,1,1,512,[… None,None,4,2,264916,0.00018253803253173828,48.357245426177975,8,5,1,1,512,Sequential(  (conv0): Conv2d(1, 8, kernel_size=(5, 5), stride=(1, 1))  (ReLU0): ReLU()  (maxp0): MaxPool2d(kernel_size=2, stride=2, padding=0, dilation=1, ceil_mode=False)  (flatten): Flatten(start_dim=1, end_dim=-1)  (h0): Linear(in_features=512, out_features=512, bias=True)  (hReLU0): ReLU()  (output): Linear(in_features=512, out_features=4, bias=True))
19, 2,5,1,1,64,[… None,None,12,8,8568,0.00018182754516601562,1.5578984069824218,2,5,1,1,64,Sequential(  (conv0): Conv2d(1, 2, kernel_size=(5, 5), stride=(1, 1))  (ReLU0): ReLU()  (maxp0): MaxPool2d(kernel_size=2, stride=2, padding=0, dilation=1, ceil_mode=False)  (flatten): Flatten(start_dim=1, end_dim=-1)  (h0): Linear(in_features=128, out_features=64, bias=True)  (hReLU0): ReLU()  (output): Linear(in_features=64, out_features=4, bias=True))
20, 6,5,1,1,64,[… None,None,8,3,25056,0.0001817607879638672,4.554198303222656,6,5,1,1,64,Sequential(  (conv0): Conv2d(1, 6, kernel_size=(5, 5), stride=(1, 1))  (ReLU0): ReLU()  (maxp0): MaxPool2d(kernel_size=2, stride=2, padding=0, dilation=1, ceil_mode=False)  (flatten): Flatten(start_dim=1, end_dim=-1)  (h0): Linear(in_features=384, out_features=64, bias=True)  (hReLU0): ReLU()  (output): Linear(in_features=64, out_features=4, bias=True))
21, 12,5,2,1,256,[… None,None,4,3,17496,0.00025191545486450193,4.407512798309326,12,5,2,1,256,Sequential(  (conv0): Conv2d(1, 12, kernel_size=(5, 5), stride=(1, 1))  (ReLU0): ReLU()  (maxp0): MaxPool2d(kernel_size=2, stride=2, padding=0, dilation=1, ceil_mode=False)  (conv1): Conv2d(12, 12, kernel_size=(5, 5), stride=(1, 1))  (ReLU1): ReLU()  (maxp1): MaxPool2d(kernel_size=2, stride=2, padding=0, dilation=1, ceil_mode=False)  (flatten): Flatten(start_dim=1, end_dim=-1)  (h0): Linear(in_features=48, out_features=256, bias=True)  (hReLU0): ReLU()  (output): Linear(in_features=256, out_features=4, bias=True))
22, 6,3,1,1,512,[… None,None,8,5,251456,0.00018270969390869141,45.94344879150391,6,3,1,1,512,Sequential(  (conv0): Conv2d(1, 6, kernel_size=(3, 3), stride=(1, 1))  (ReLU0): ReLU()  (maxp0): MaxPool2d(kernel_size=2, stride=2, padding=0, dilation=1, ceil_mode=False)  (flatten): Flatten(start_dim=1, end_dim=-1)  (h0): Linear(in_features=486, out_features=512, bias=True)  (hReLU0): ReLU()  (output): Linear(in_features=512, out_features=4, bias=True))
23, 6,5,2,0,64,[… None,23,17,9,1162,0.00020282030105590822,0.23567718982696534,6,5,2,0,64,Sequential(  (conv0): Conv2d(1, 6, kernel_size=(5, 5), stride=(1, 1))  (ReLU0): ReLU()  (maxp0): MaxPool2d(kernel_size=2, stride=2, padding=0, dilation=1, ceil_mode=False)  (conv1): Conv2d(6, 6, kernel_size=(5, 5), stride=(1, 1))  (ReLU1): ReLU()  (maxp1): MaxPool2d(kernel_size=2, stride=2, padding=0, dilation=1, ceil_mode=False)  (flatten): Flatten(start_dim=1, end_dim=-1)  (output): Linear(in_features=24, out_features=4, bias=True))
24, 12,5,2,0,256,[… None,22,9,5,4120,0.00020408153533935547,0.8408159255981446,12,5,2,0,256,Sequential(  (conv0): Conv2d(1, 12, kernel_size=(5, 5), stride=(1, 1))  (ReLU0): ReLU()  (maxp0): MaxPool2d(kernel_size=2, stride=2, padding=0, dilation=1, ceil_mode=False)  (conv1): Conv2d(12, 12, kernel_size=(5, 5), stride=(1, 1))  (ReLU1): ReLU()  (maxp1): MaxPool2d(kernel_size=2, stride=2, padding=0, dilation=1, ceil_mode=False)  (flatten): Flatten(start_dim=1, end_dim=-1)  (output): Linear(in_features=48, out_features=4, bias=True))
25, 10,5,2,1,512,[… None,7,6,3,25814,0.0002513861656188965,6.489282479286194,10,5,2,1,512,Sequential(  (conv0): Conv2d(1, 10, kernel_size=(5, 5), stride=(1, 1))  (ReLU0): ReLU()  (maxp0): MaxPool2d(kernel_size=2, stride=2, padding=0, dilation=1, ceil_mode=False)  (conv1): Conv2d(10, 10, kernel_size=(5, 5), stride=(1, 1))  (ReLU1): ReLU()  (maxp1): MaxPool2d(kernel_size=2, stride=2, padding=0, dilation=1, ceil_mode=False)  (flatten): Flatten(start_dim=1, end_dim=-1)  (h0): Linear(in_features=40, out_features=512, bias=True)  (hReLU0): ReLU()  (output): Linear(in_features=512, out_features=4, bias=True))
26, 6,5,2,0,128,[… None,None,None,25,1162,0.00020587682723999023,0.23922887325286865,6,5,2,0,128,Sequential(  (conv0): Conv2d(1, 6, kernel_size=(5, 5), stride=(1, 1))  (ReLU0): ReLU()  (maxp0): MaxPool2d(kernel_size=2, stride=2, padding=0, dilation=1, ceil_mode=False)  (conv1): Conv2d(6, 6, kernel_size=(5, 5), stride=(1, 1))  (ReLU1): ReLU()  (maxp1): MaxPool2d(kernel_size=2, stride=2, padding=0, dilation=1, ceil_mode=False)  (flatten): Flatten(start_dim=1, end_dim=-1)  (output): Linear(in_features=24, out_features=4, bias=True))
27, 8,5,2,1,256,[… None,None,5,4,11292,0.00025043010711669924,2.827856769561768,8,5,2,1,256,Sequential(  (conv0): Conv2d(1, 8, kernel_size=(5, 5), stride=(1, 1))  (ReLU0): ReLU()  (maxp0): MaxPool2d(kernel_size=2, stride=2, padding=0, dilation=1, ceil_mode=False)  (conv1): Conv2d(8, 8, kernel_size=(5, 5), stride=(1, 1))  (ReLU1): ReLU()  (maxp1): MaxPool2d(kernel_size=2, stride=2, padding=0, dilation=1, ceil_mode=False)  (flatten): Flatten(start_dim=1, end_dim=-1)  (h0): Linear(in_features=32, out_features=256, bias=True)  (hReLU0): ReLU()  (output): Linear(in_features=256, out_features=4, bias=True))
28, 4,3,2,0,256,[… None,None,None,22,336,0.00020144939422607423,0.06768699645996094,4,3,2,0,256,Sequential(  (conv0): Conv2d(1, 4, kernel_size=(3, 3), stride=(1, 1))  (ReLU0): ReLU()  (maxp0): MaxPool2d(kernel_size=2, stride=2, padding=0, dilation=1, ceil_mode=False)  (conv1): Conv2d(4, 4, kernel_size=(3, 3), stride=(1, 1))  (ReLU1): ReLU()  (maxp1): MaxPool2d(kernel_size=2, stride=2, padding=0, dilation=1, ceil_mode=False)  (flatten): Flatten(start_dim=1, end_dim=-1)  (output): Linear(in_features=36, out_features=4, bias=True))
29, 4,3,2,2,256,[… None,None,10,7,76480,0.00029698371887207034,22.713314819335938,4,3,2,2,256,Sequential(  (conv0): Conv2d(1, 4, kernel_size=(3, 3), stride=(1, 1))  (ReLU0): ReLU()  (maxp0): MaxPool2d(kernel_size=2, stride=2, padding=0, dilation=1, ceil_mode=False)  (conv1): Conv2d(4, 4, kernel_size=(3, 3), stride=(1, 1))  (ReLU1): ReLU()  (maxp1): MaxPool2d(kernel_size=2, stride=2, padding=0, dilation=1, ceil_mode=False)  (flatten): Flatten(start_dim=1, end_dim=-1)  (h0): Linear(in_features=36, out_features=256, bias=True)  (hReLU0): ReLU()  (h1): Linear(in_features=256, out_features=256, bias=True)  (hReLU1): ReLU()  (output): Linear(in_features=256, out_features=4, bias=True))
30, 4,5,1,1,64,[… None,None,8,5,16812,0.0001794886589050293,3.0175633335113528,4,5,1,1,64,Sequential(  (conv0): Conv2d(1, 4, kernel_size=(5, 5), stride=(1, 1))  (ReLU0): ReLU()  (maxp0): MaxPool2d(kernel_size=2, stride=2, padding=0, dilation=1, ceil_mode=False)  (flatten): Flatten(start_dim=1, end_dim=-1)  (h0): Linear(in_features=256, out_features=64, bias=True)  (hReLU0): ReLU()  (output): Linear(in_features=64, out_features=4, bias=True))
31, 8,3,1,0,512,[… None,None,None,4,2676,0.00013314008712768553,0.3562828731536865,8,3,1,0,512,Sequential(  (conv0): Conv2d(1, 8, kernel_size=(3, 3), stride=(1, 1))  (ReLU0): ReLU()  (maxp0): MaxPool2d(kernel_size=2, stride=2, padding=0, dilation=1, ceil_mode=False)  (flatten): Flatten(start_dim=1, end_dim=-1)  (output): Linear(in_features=648, out_features=4, bias=True))
32, 12,3,1,1,128,[… None,None,5,2,125180,0.0001788783073425293,22.391986513137816,12,3,1,1,128,Sequential(  (conv0): Conv2d(1, 12, kernel_size=(3, 3), stride=(1, 1))  (ReLU0): ReLU()  (maxp0): MaxPool2d(kernel_size=2, stride=2, padding=0, dilation=1, ceil_mode=False)  (flatten): Flatten(start_dim=1, end_dim=-1)  (h0): Linear(in_features=972, out_features=128, bias=True)  (hReLU0): ReLU()  (output): Linear(in_features=128, out_features=4, bias=True))
33, 6,5,1,0,512,[… None,None,12,5,1696,0.00013490676879882813,0.2288018798828125,6,5,1,0,512,Sequential(  (conv0): Conv2d(1, 6, kernel_size=(5, 5), stride=(1, 1))  (ReLU0): ReLU()  (maxp0): MaxPool2d(kernel_size=2, stride=2, padding=0, dilation=1, ceil_mode=False)  (flatten): Flatten(start_dim=1, end_dim=-1)  (output): Linear(in_features=384, out_features=4, bias=True))
34, 6,3,1,0,512,[… None,None,7,3,2008,0.00013336420059204102,0.26779531478881835,6,3,1,0,512,Sequential(  (conv0): Conv2d(1, 6, kernel_size=(3, 3), stride=(1, 1))  (ReLU0): ReLU()  (maxp0): MaxPool2d(kernel_size=2, stride=2, padding=0, dilation=1, ceil_mode=False)  (flatten): Flatten(start_dim=1, end_dim=-1)  (output): Linear(in_features=486, out_features=4, bias=True))
35, 10,5,2,0,64,[… None,None,9,4,2934,0.00020532131195068358,0.6024127292633056,10,5,2,0,64,Sequential(  (conv0): Conv2d(1, 10, kernel_size=(5, 5), stride=(1, 1))  (ReLU0): ReLU()  (maxp0): MaxPool2d(kernel_size=2, stride=2, padding=0, dilation=1, ceil_mode=False)  (conv1): Conv2d(10, 10, kernel_size=(5, 5), stride=(1, 1))  (ReLU1): ReLU()  (maxp1): MaxPool2d(kernel_size=2, stride=2, padding=0, dilation=1, ceil_mode=False)  (flatten): Flatten(start_dim=1, end_dim=-1)  (output): Linear(in_features=40, out_features=4, bias=True))
36, 8,5,2,2,128,[… 10,9,7,4,23068,0.00029626846313476565,6.834320907592774,8,5,2,2,128,Sequential(  (conv0): Conv2d(1, 8, kernel_size=(5, 5), stride=(1, 1))  (ReLU0): ReLU()  (maxp0): MaxPool2d(kernel_size=2, stride=2, padding=0, dilation=1, ceil_mode=False)  (conv1): Conv2d(8, 8, kernel_size=(5, 5), stride=(1, 1))  (ReLU1): ReLU()  (maxp1): MaxPool2d(kernel_size=2, stride=2, padding=0, dilation=1, ceil_mode=False)  (flatten): Flatten(start_dim=1, end_dim=-1)  (h0): Linear(in_features=32, out_features=128, bias=True)  (hReLU0): ReLU()  (h1): Linear(in_features=128, out_features=128, bias=True)  (hReLU1): ReLU()  (output): Linear(in_features=128, out_features=4, bias=True))
37, 2,3,2,2,64,[… None,None,None,8,5694,0.00029874801635742187,1.70107120513916,2,3,2,2,64,Sequential(  (conv0): Conv2d(1, 2, kernel_size=(3, 3), stride=(1, 1))  (ReLU0): ReLU()  (maxp0): MaxPool2d(kernel_size=2, stride=2, padding=0, dilation=1, ceil_mode=False)  (conv1): Conv2d(2, 2, kernel_size=(3, 3), stride=(1, 1))  (ReLU1): ReLU()  (maxp1): MaxPool2d(kernel_size=2, stride=2, padding=0, dilation=1, ceil_mode=False)  (flatten): Flatten(start_dim=1, end_dim=-1)  (h0): Linear(in_features=18, out_features=64, bias=True)  (hReLU0): ReLU()  (h1): Linear(in_features=64, out_features=64, bias=True)  (hReLU1): ReLU()  (output): Linear(in_features=64, out_features=4, bias=True))
38, 2,5,1,2,512,[… None,None,9,4,330808,0.00022593498229980468,74.74109962463379,2,5,1,2,512,Sequential(  (conv0): Conv2d(1, 2, kernel_size=(5, 5), stride=(1, 1))  (ReLU0): ReLU()  (maxp0): MaxPool2d(kernel_size=2, stride=2, padding=0, dilation=1, ceil_mode=False)  (flatten): Flatten(start_dim=1, end_dim=-1)  (h0): Linear(in_features=128, out_features=512, bias=True)  (hReLU0): ReLU()  (h1): Linear(in_features=512, out_features=512, bias=True)  (hReLU1): ReLU()  (output): Linear(in_features=512, out_features=4, bias=True))
39, 8,5,1,1,64,[… None,None,9,4,33300,0.00018035173416137696,6.0057127475738525,8,5,1,1,64,Sequential(  (conv0): Conv2d(1, 8, kernel_size=(5, 5), stride=(1, 1))  (ReLU0): ReLU()  (maxp0): MaxPool2d(kernel_size=2, stride=2, padding=0, dilation=1, ceil_mode=False)  (flatten): Flatten(start_dim=1, end_dim=-1)  (h0): Linear(in_features=512, out_features=64, bias=True)  (hReLU0): ReLU()  (output): Linear(in_features=64, out_features=4, bias=True))
40, 12,3,2,2,64,[… None,14,10,5,12824,0.00029752254486083987,3.8154291152954105,12,3,2,2,64,Sequential(  (conv0): Conv2d(1, 12, kernel_size=(3, 3), stride=(1, 1))  (ReLU0): ReLU()  (maxp0): MaxPool2d(kernel_size=2, stride=2, padding=0, dilation=1, ceil_mode=False)  (conv1): Conv2d(12, 12, kernel_size=(3, 3), stride=(1, 1))  (ReLU1): ReLU()  (maxp1): MaxPool2d(kernel_size=2, stride=2, padding=0, dilation=1, ceil_mode=False)  (flatten): Flatten(start_dim=1, end_dim=-1)  (h0): Linear(in_features=108, out_features=64, bias=True)  (hReLU0): ReLU()  (h1): Linear(in_features=64, out_features=64, bias=True)  (hReLU1): ReLU()  (output): Linear(in_features=64, out_features=4, bias=True))
41, 10,3,1,2,512,[… None,None,4,4,680040,0.00022708177566528321,154.4246907234192,10,3,1,2,512,Sequential(  (conv0): Conv2d(1, 10, kernel_size=(3, 3), stride=(1, 1))  (ReLU0): ReLU()  (maxp0): MaxPool2d(kernel_size=2, stride=2, padding=0, dilation=1, ceil_mode=False)  (flatten): Flatten(start_dim=1, end_dim=-1)  (h0): Linear(in_features=810, out_features=512, bias=True)  (hReLU0): ReLU()  (h1): Linear(in_features=512, out_features=512, bias=True)  (hReLU1): ReLU()  (output): Linear(in_features=512, out_features=4, bias=True))
42, 2,3,2,2,256,[… None,None,12,4,71742,0.00029994964599609373,21.518987503051758,2,3,2,2,256,Sequential(  (conv0): Conv2d(1, 2, kernel_size=(3, 3), stride=(1, 1))  (ReLU0): ReLU()  (maxp0): MaxPool2d(kernel_size=2, stride=2, padding=0, dilation=1, ceil_mode=False)  (conv1): Conv2d(2, 2, kernel_size=(3, 3), stride=(1, 1))  (ReLU1): ReLU()  (maxp1): MaxPool2d(kernel_size=2, stride=2, padding=0, dilation=1, ceil_mode=False)  (flatten): Flatten(start_dim=1, end_dim=-1)  (h0): Linear(in_features=18, out_features=256, bias=True)  (hReLU0): ReLU()  (h1): Linear(in_features=256, out_features=256, bias=True)  (hReLU1): ReLU()  (output): Linear(in_features=256, out_features=4, bias=True))
43, 12,3,2,1,256,[… None,None,14,5,30360,0.0002542686462402344,7.719596099853516,12,3,2,1,256,Sequential(  (conv0): Conv2d(1, 12, kernel_size=(3, 3), stride=(1, 1))  (ReLU0): ReLU()  (maxp0): MaxPool2d(kernel_size=2, stride=2, padding=0, dilation=1, ceil_mode=False)  (conv1): Conv2d(12, 12, kernel_size=(3, 3), stride=(1, 1))  (ReLU1): ReLU()  (maxp1): MaxPool2d(kernel_size=2, stride=2, padding=0, dilation=1, ceil_mode=False)  (flatten): Flatten(start_dim=1, end_dim=-1)  (h0): Linear(in_features=108, out_features=256, bias=True)  (hReLU0): ReLU()  (output): Linear(in_features=256, out_features=4, bias=True))
44, 6,3,1,2,256,[… None,None,8,4,191552,0.00022699356079101563,43.481070556640624,6,3,1,2,256,Sequential(  (conv0): Conv2d(1, 6, kernel_size=(3, 3), stride=(1, 1))  (ReLU0): ReLU()  (maxp0): MaxPool2d(kernel_size=2, stride=2, padding=0, dilation=1, ceil_mode=False)  (flatten): Flatten(start_dim=1, end_dim=-1)  (h0): Linear(in_features=486, out_features=256, bias=True)  (hReLU0): ReLU()  (h1): Linear(in_features=256, out_features=256, bias=True)  (hReLU1): ReLU()  (output): Linear(in_features=256, out_features=4, bias=True))
45, 8,3,1,2,256,[… None,None,6,5,233044,0.00022777080535888673,53.0806195640564,8,3,1,2,256,Sequential(  (conv0): Conv2d(1, 8, kernel_size=(3, 3), stride=(1, 1))  (ReLU0): ReLU()  (maxp0): MaxPool2d(kernel_size=2, stride=2, padding=0, dilation=1, ceil_mode=False)  (flatten): Flatten(start_dim=1, end_dim=-1)  (h0): Linear(in_features=648, out_features=256, bias=True)  (hReLU0): ReLU()  (h1): Linear(in_features=256, out_features=256, bias=True)  (hReLU1): ReLU()  (output): Linear(in_features=256, out_features=4, bias=True))
46, 6,3,2,1,64,[… None,None,13,8,4170,0.0002521824836730957,1.051600956916809,6,3,2,1,64,Sequential(  (conv0): Conv2d(1, 6, kernel_size=(3, 3), stride=(1, 1))  (ReLU0): ReLU()  (maxp0): MaxPool2d(kernel_size=2, stride=2, padding=0, dilation=1, ceil_mode=False)  (conv1): Conv2d(6, 6, kernel_size=(3, 3), stride=(1, 1))  (ReLU1): ReLU()  (maxp1): MaxPool2d(kernel_size=2, stride=2, padding=0, dilation=1, ceil_mode=False)  (flatten): Flatten(start_dim=1, end_dim=-1)  (h0): Linear(in_features=54, out_features=64, bias=True)  (hReLU0): ReLU()  (output): Linear(in_features=64, out_features=4, bias=True))
47, 6,5,1,2,256,[… None,None,7,3,165536,0.00022577047348022462,37.373141098022465,6,5,1,2,256,Sequential(  (conv0): Conv2d(1, 6, kernel_size=(5, 5), stride=(1, 1))  (ReLU0): ReLU()  (maxp0): MaxPool2d(kernel_size=2, stride=2, padding=0, dilation=1, ceil_mode=False)  (flatten): Flatten(start_dim=1, end_dim=-1)  (h0): Linear(in_features=384, out_features=256, bias=True)  (hReLU0): ReLU()  (h1): Linear(in_features=256, out_features=256, bias=True)  (hReLU1): ReLU()  (output): Linear(in_features=256, out_features=4, bias=True))
48, 6,3,1,2,128,[… None,None,5,3,79424,0.00022877454757690429,18.170189666748048,6,3,1,2,128,Sequential(  (conv0): Conv2d(1, 6, kernel_size=(3, 3), stride=(1, 1))  (ReLU0): ReLU()  (maxp0): MaxPool2d(kernel_size=2, stride=2, padding=0, dilation=1, ceil_mode=False)  (flatten): Flatten(start_dim=1, end_dim=-1)  (h0): Linear(in_features=486, out_features=128, bias=True)  (hReLU0): ReLU()  (h1): Linear(in_features=128, out_features=128, bias=True)  (hReLU1): ReLU()  (output): Linear(in_features=128, out_features=4, bias=True))
49, 12,3,1,1,256,[… None,None,5,2,250236,0.00018665790557861328,46.708527660369874,12,3,1,1,256,Sequential(  (conv0): Conv2d(1, 12, kernel_size=(3, 3), stride=(1, 1))  (ReLU0): ReLU()  (maxp0): MaxPool2d(kernel_size=2, stride=2, padding=0, dilation=1, ceil_mode=False)  (flatten): Flatten(start_dim=1, end_dim=-1)  (h0): Linear(in_features=972, out_features=256, bias=True)  (hReLU0): ReLU()  (output): Linear(in_features=256, out_features=4, bias=True))
50, 10,3,1,1,256,[… None,None,10,2,208744,0.0001842641830444336,38.46404262542725,10,3,1,1,256,Sequential(  (conv0): Conv2d(1, 10, kernel_size=(3, 3), stride=(1, 1))  (ReLU0): ReLU()  (maxp0): MaxPool2d(kernel_size=2, stride=2, padding=0, dilation=1, ceil_mode=False)  (flatten): Flatten(start_dim=1, end_dim=-1)  (h0): Linear(in_features=810, out_features=256, bias=True)  (hReLU0): ReLU()  (output): Linear(in_features=256, out_features=4, bias=True))
51, 6,5,1,0,128,[… None,None,11,5,1696,0.00013704538345336913,0.23242897033691404,6,5,1,0,128,Sequential(  (conv0): Conv2d(1, 6, kernel_size=(5, 5), stride=(1, 1))  (ReLU0): ReLU()  (maxp0): MaxPool2d(kernel_size=2, stride=2, padding=0, dilation=1, ceil_mode=False)  (flatten): Flatten(start_dim=1, end_dim=-1)  (output): Linear(in_features=384, out_features=4, bias=True))
52, 6,5,2,2,256,[… 14,11,6,4,74282,0.00029387950897216794,21.82995768547058,6,5,2,2,256,Sequential(  (conv0): Conv2d(1, 6, kernel_size=(5, 5), stride=(1, 1))  (ReLU0): ReLU()  (maxp0): MaxPool2d(kernel_size=2, stride=2, padding=0, dilation=1, ceil_mode=False)  (conv1): Conv2d(6, 6, kernel_size=(5, 5), stride=(1, 1))  (ReLU1): ReLU()  (maxp1): MaxPool2d(kernel_size=2, stride=2, padding=0, dilation=1, ceil_mode=False)  (flatten): Flatten(start_dim=1, end_dim=-1)  (h0): Linear(in_features=24, out_features=256, bias=True)  (hReLU0): ReLU()  (h1): Linear(in_features=256, out_features=256, bias=True)  (hReLU1): ReLU()  (output): Linear(in_features=256, out_features=4, bias=True))
53, 2,3,2,1,512,[… None,None,None,None,11838,0.000253758430480957,3.0039923000335693,2,3,2,1,512,Sequential(  (conv0): Conv2d(1, 2, kernel_size=(3, 3), stride=(1, 1))  (ReLU0): ReLU()  (maxp0): MaxPool2d(kernel_size=2, stride=2, padding=0, dilation=1, ceil_mode=False)  (conv1): Conv2d(2, 2, kernel_size=(3, 3), stride=(1, 1))  (ReLU1): ReLU()  (maxp1): MaxPool2d(kernel_size=2, stride=2, padding=0, dilation=1, ceil_mode=False)  (flatten): Flatten(start_dim=1, end_dim=-1)  (h0): Linear(in_features=18, out_features=512, bias=True)  (hReLU0): ReLU()  (output): Linear(in_features=512, out_features=4, bias=True))
54, 2,3,1,0,512,[… None,None,None,None,672,0.00013488292694091797,0.09064132690429688,2,3,1,0,512,Sequential(  (conv0): Conv2d(1, 2, kernel_size=(3, 3), stride=(1, 1))  (ReLU0): ReLU()  (maxp0): MaxPool2d(kernel_size=2, stride=2, padding=0, dilation=1, ceil_mode=False)  (flatten): Flatten(start_dim=1, end_dim=-1)  (output): Linear(in_features=162, out_features=4, bias=True))
55, 10,3,1,0,512,[… None,None,14,3,3344,0.00013495683670043944,0.4512956619262695,10,3,1,0,512,Sequential(  (conv0): Conv2d(1, 10, kernel_size=(3, 3), stride=(1, 1))  (ReLU0): ReLU()  (maxp0): MaxPool2d(kernel_size=2, stride=2, padding=0, dilation=1, ceil_mode=False)  (flatten): Flatten(start_dim=1, end_dim=-1)  (output): Linear(in_features=810, out_features=4, bias=True))
56, 4,3,2,1,128,[… None,None,12,6,5440,0.00025229454040527345,1.3724822998046875,4,3,2,1,128,Sequential(  (conv0): Conv2d(1, 4, kernel_size=(3, 3), stride=(1, 1))  (ReLU0): ReLU()  (maxp0): MaxPool2d(kernel_size=2, stride=2, padding=0, dilation=1, ceil_mode=False)  (conv1): Conv2d(4, 4, kernel_size=(3, 3), stride=(1, 1))  (ReLU1): ReLU()  (maxp1): MaxPool2d(kernel_size=2, stride=2, padding=0, dilation=1, ceil_mode=False)  (flatten): Flatten(start_dim=1, end_dim=-1)  (h0): Linear(in_features=36, out_features=128, bias=True)  (hReLU0): ReLU()  (output): Linear(in_features=128, out_features=4, bias=True))
57, 6,5,1,1,256,[… None,None,4,4,99744,0.00019240617752075195,19.191361770629882,6,5,1,1,256,Sequential(  (conv0): Conv2d(1, 6, kernel_size=(5, 5), stride=(1, 1))  (ReLU0): ReLU()  (maxp0): MaxPool2d(kernel_size=2, stride=2, padding=0, dilation=1, ceil_mode=False)  (flatten): Flatten(start_dim=1, end_dim=-1)  (h0): Linear(in_features=384, out_features=256, bias=True)  (hReLU0): ReLU()  (output): Linear(in_features=256, out_features=4, bias=True))
58, 6,3,2,0,64,[… None,None,None,6,610,0.00021375656127929686,0.1303915023803711,6,3,2,0,64,Sequential(  (conv0): Conv2d(1, 6, kernel_size=(3, 3), stride=(1, 1))  (ReLU0): ReLU()  (maxp0): MaxPool2d(kernel_size=2, stride=2, padding=0, dilation=1, ceil_mode=False)  (conv1): Conv2d(6, 6, kernel_size=(3, 3), stride=(1, 1))  (ReLU1): ReLU()  (maxp1): MaxPool2d(kernel_size=2, stride=2, padding=0, dilation=1, ceil_mode=False)  (flatten): Flatten(start_dim=1, end_dim=-1)  (output): Linear(in_features=54, out_features=4, bias=True))
59, 10,3,1,1,512,[… None,None,9,4,417384,0.00018308401107788085,76.41633687973022,10,3,1,1,512,Sequential(  (conv0): Conv2d(1, 10, kernel_size=(3, 3), stride=(1, 1))  (ReLU0): ReLU()  (maxp0): MaxPool2d(kernel_size=2, stride=2, padding=0, dilation=1, ceil_mode=False)  (flatten): Flatten(start_dim=1, end_dim=-1)  (h0): Linear(in_features=810, out_features=512, bias=True)  (hReLU0): ReLU()  (output): Linear(in_features=512, out_features=4, bias=True))
